==========================================================================================
Layer (type:depth-idx)                   Output Shape              Param #
==========================================================================================
ProbLSTM                                 [1, 1]                    --
├─LSTM: 1-1                              [1, 64, 64]               18,432
├─Sequential: 1-2                        [1, 1]                    --
│    └─Linear: 2-1                       [1, 64]                   4,160
│    └─ReLU: 2-2                         [1, 64]                   --
│    └─Linear: 2-3                       [1, 1]                    65
├─Sequential: 1-3                        [1, 1]                    --
│    └─Linear: 2-4                       [1, 64]                   4,160
│    └─ReLU: 2-5                         [1, 64]                   --
│    └─Linear: 2-6                       [1, 1]                    65
==========================================================================================
Total params: 26,882
Trainable params: 26,882
Non-trainable params: 0
Total mult-adds (Units.MEGABYTES): 1.19
==========================================================================================
Input size (MB): 0.00
Forward/backward pass size (MB): 0.03
Params size (MB): 0.11
Estimated Total Size (MB): 0.14
…
